best_model.pth (torch, 142569 bytes, 9 tensors)

lstm.weight_ih_l0 f4 [200, 21]
000000 bb c7 d5 3d 67 36 6d be d0 ca bd bd 69 43 7c 3d
       0.10438486 -0.23165284 -0.09267199 0.061587725
000010 3f b3 37 3e fc 0e 63 3e 72 3a 15 3e 1f 73 73 3c
       0.1793947 0.22173685 0.14573076 0.01485899
000020 f0 ab 69 3e 97 a3 1a 3e c2 e1 5b 3e ab 3e 43 3e
       0.22819495 0.15101467 0.21472839 0.19066875
000030 6f c9 b4 3d 6d 40 4e b9 7e 72 00 bd 6e 5b 40 bc
       0.08827483 -0.00019669691 -0.03135919 -0.011740549
000040 3c 4d 17 3e 9b 68 90 3c c4 27 6f 3e dc d0 55 3e
       0.14775556 0.017628005 0.23355013 0.20880455
000050 b5 c7 ce 3d b4 a3 3d 3c c6 c0 da 3d 65 b5 8d bd
       0.10096685 0.011574674 0.106813 -0.06919364
000060 18 f9 36 3d 8e 17 6e bd 19 3a 3d 3e ef 0f d1 3d
       0.044671148 -0.058127932 0.18479194 0.10208117
000070 08 da eb 3d 44 73 72 3e a5 4a 62 3e f5 e9 75 3d
       0.115161955 0.23676783 0.22098787 0.060037572
000080 cc 8a a7 bd 1b c5 13 3d 6c f3 15 3e 4f ea 9a 3c
       -0.0818077 0.036076646 0.1464364 0.018910555
000090 85 c1 0d 3d d1 53 dd bd cf ab fb 3d bd a0 dc 3d
       0.034608383 -0.10807002 0.12288629 0.10772846
0000a0 1a f1 e5 3d 82 10 70 3e 94 f8 08 3e f0 fb f8 3c
       0.11227627 0.23443797 0.13376075 0.03039357
0000b0 09 0a db 3d 93 ba 0d 3e b5 01 01 3e 3d 71 b8 ba
       0.106952734 0.13840704 0.12598307 -0.0014071834
0000c0 0e 08 c8 3d 34 5d 0e 3d c6 ae 4d bd d1 14 fd 3d
       0.09767161 0.034756854 -0.050215505 0.12357486
0000d0 3f 91 69 3e 08 26 9f 3d e5 94 7f 3d da 7b 6a 3d
       0.22809313 0.07770926 0.062397856 0.05724702
0000e0 a9 7f df 3c 0a 03 1d 3d 28 78 5d 3e 05 68 eb bd
       0.027282553 0.038332976 0.21627867 -0.114944495
0000f0 6d ee 8a 3d 83 42 d2 3d ce 33 46 bd 17 32 7f bd
       0.06783757 0.10266592 -0.04838925 -0.06230363
000100 eb a3 eb be f6 7a 27 3e 67 f3 10 3e f9 dd a8 be
       -0.46023497 0.163555 0.1415535 -0.32981852
000110 7f fd 34 be 3d 4b 95 be 94 e0 c2 bd 3b fa 91 3d
       -0.17674826 -0.29158965 -0.09515491 0.07127806
000120 59 eb 1c 3f 3b 8c 43 bf 09 df 05 3f 1c d4 ea be
       0.6129661 -0.7638585 0.5229345 -0.45864952
000130 f3 b1 12 3f 94 b2 1c bf f5 ca 00 3f c5 7b d8 be
       0.5730278 -0.6120999 0.5030969 -0.4228193
000140 9a 6c b9 bd d2 38 e6 be 5f a5 07 3f f3 64 30 3f
       -0.09053917 -0.44965225 0.5298671 0.68904036
000150 b1 aa 7a 3d 7a cb 8a 3e 2c 19 41 3f 62 56 69 bd
       0.06119794 0.27108365 0.75429034 -0.056967147
000160 a8 e5 ab bd 0f a4 0e be 34 c3 16 bc 6f b1 e0 3d
       -0.08393413 -0.13929771 -0.0092018135 0.10971343
000170 b3 a2 e9 ba 04 8f 8b bc b4 e8 4a 3e b8 3f 80 bd
       -0.0017824977 -0.017035969 0.19815332 -0.062621534
000180 3c de 01 3e 80 24 22 be 5d b3 80 3d d9 7e 1c 3c
       0.12682432 -0.15834236 0.06284211 0.009551727
000190 e0 07 60 3d a5 11 b3 bd 24 f6 da 3d e3 33 20 3d
       0.05469501 -0.087436 0.10691479 0.039111983
0001a0 d6 cc e6 bc a6 78 9d 3b 70 6e 44 3c 04 be 9d 3e
       -0.028173845 0.004805642 0.011989221 0.30809033
0001b0 7e 1d b5 3d 5b 3c 57 3e 1b c0 57 3e 01 e8 f1 3c
       0.08843516 0.21019118 0.21069376 0.029529573
0001c0 52 54 1c 3d e5 6d 69 3e 0a 2f 80 3e 18 23 8e 3e
       0.03816635 0.22795828 0.25035888 0.2776115
0001d0 72 6b 6b 3e 00 22 85 3c cc b0 b6 bc 92 5d 56 3e
       0.22990206 0.016251564 -0.0223011 0.20934132
0001e0 c4 56 d4 3c f9 12 ca 3d 2b 05 a8 bc fd 9c d0 3c
       0.02592028 0.098669 -0.020510277 0.025465483
0001f0 5b 79 9b 3d 87 89 93 3d ee 6d 34 bd 19 b0 07 3e
       0.07591506 0.07203966 -0.04405015 0.1325077
000200 ea 84 c3 bc 21 59 12 3e 51 0e 78 bc 0c e7 23 3c
       -0.02386709 0.14291812 -0.015140132 0.010003816
000210 32 9f 6e bd d7 fc 9a bd a4 4e 41 3d 44 57 04 bd
       -0.05825729 -0.075677566 0.04719414 -0.032309785
000220 97 10 0e 3e 8a 3e 21 bc a8 1b a9 3d 1c b6 78 3d
       0.13873516 -0.009841571 0.08257228 0.060720548
000230 1f 17 a9 38 9c ca 8c ba a6 b7 f8 3c ec 27 05 3d
       8.0628546e-05 -0.0010741535 0.030361008 0.032508776
000240 5e 5d ac bb 1c ee 45 3e 1b b1 53 3e 57 29 2a 3d
       -0.0052601537 0.19329113 0.20673029 0.04154333
000250 f2 24 07 bd 37 a7 e5 3d b3 47 d7 3c 2d 78 f8 3d
       -0.03299422 0.11213534 0.026279306 0.12132297
000260 a0 0b 57 bd 66 31 9a 3d 4c 3d 0b 3e 4b 5e a0 3d
       -0.05250132 0.07528953 0.13597602 0.07830485
000270 7a 81 90 bd 61 2e 07 3e a7 36 fa 3d 8a 70 78 bd
       -0.07055946 0.13201286 0.12217455 -0.0606542
000280 aa a9 48 bd 6a 7c 34 3d 88 51 ae bc cc ef 19 bd
       -0.04898993 0.044063963 -0.021279112 -0.037582204
000290 f8 9e 0c 3e d0 33 41 3e 70 4a 87 bc 77 6f 29 bc
       0.13732517 0.18867421 -0.016514987 -0.010341517
0002a0 90 f6 1f 3e 0d 94 fb 3d 02 38 8b 3b d4 ea 47 3d
       0.156214 0.12284098 0.00424862 0.048807934
0002b0 8c 7f f3 3d e0 30 9e 3d 6d 14 60 3e 80 00 26 bd
       0.11889562 0.07724166 0.21882792 -0.04052782
0002c0 85 0f c1 3d 84 bf 5c 3e c0 57 9d 3d 39 b6 07 3b
       0.09426788 0.21557432 0.076827526 0.0020707978
0002d0 44 87 6d 3e 60 b2 f2 3d 7d 4e 2f 3e e3 0b 69 3e
       0.23196131 0.118504286 0.17119785 0.2275844
0002e0 8a 03 a3 3d 52 cb f8 3d 9e 55 03 bc 4f de 2f 3e
       0.079596594 0.12148155 -0.008016018 0.17174648
0002f0 a5 44 59 3e 2d b2 29 3d d7 d7 a4 bf 52 d3 73 3f
       0.21217592 0.041429687 -1.2878369 0.95244324
000300 92 8f c5 bd 97 61 6b be 11 f9 32 be f3 66 85 be
       -0.096465245 -0.22986446 -0.17477824 -0.26055107
000310 74 a0 ea 3d 54 39 ac 3d 88 4c ae 3d 79 70 6b bd
       0.11456385 0.08409372 0.08510691 -0.05748031
000320 2f ea 07 bf 43 25 94 be be 6f d3 3d 97 bd c1 bd
       -0.5309171 -0.28934678 0.103240475 -0.094599895
000330 b7 59 67 be 1e 24 2d be 5b 5b bd 3c ca 4f 4c be
       -0.22592817 -0.16908309 0.02311485 -0.19952312
000340 93 7e e4 3d 48 f7 24 3e 1d a6 77 3d 56 3f 0f 3c
       0.111569546 0.16109955 0.060461152 0.008743128
000350 2e d4 8e 3d 18 f4 aa 3c 82 58 13 3e 9c ea 33 3e
       0.06974064 0.020868346 0.14389232 0.17569965
000360 dc a1 c4 3c 42 d6 f5 3d 8f 06 50 3e ab f0 29 3e
       0.024002962 0.12003757 0.20315002 0.16595714
000370 8f b4 c1 3d bc b1 13 bd d6 fc 4e 3b 65 da bf bd
       0.09458267 -0.036058173 0.0031583807 -0.09367827
000380 16 0c 53 3e 8e ba bd bc 4d f1 5b bc 7f f8 0b bd
       0.20610079 -0.023160245 -0.01342423 -0.03417253
000390 ca d8 5c 3e a6 50 91 3d 33 00 a3 3d 71 c3 42 3e
       0.21567073 0.070954606 0.079590224 0.19019867
0003a0 e0 ff c4 3e 54 90 28 3f 77 56 49 bd a3 0c 38 3e
       0.38476467 0.6584523 -0.049154725 0.1797357
0003b0 dc 0e 35 3d d8 cc 91 3e c7 91 0b be 18 0b a3 bc
       0.044203624 0.28476596 -0.13629828 -0.01990275
0003c0 4d 6c 19 3e 1f eb 9f 3e 79 82 39 be 2f ef 04 3d
       0.1498272 0.3123407 -0.18116178 0.032454666
0003d0 9e 29 13 be 8b 8b 4a 3e 1c fc 34 be 3d f4 e8 3d
       -0.14371344 0.19779794 -0.17674297 0.1137471
0003e0 73 d9 a6 bd 95 82 77 bc 05 18 d7 3d ac 7e f2 bc
       -0.08146944 -0.015106817 0.10502628 -0.029601417
0003f0 88 b8 2a 3e 17 89 24 3d 0e 49 a3 3d 02 b8 25 3e
       0.16671956 0.0401698 0.079729185 0.16183475

lstm.weight_hh_l0 f4 [200, 50]
000000 35 d7 39 3e e2 60 82 3d de f1 c5 bd ae fb 95 3d
       0.18148501 0.06366135 -0.09665273 0.07323395
000010 e5 3e 76 3d c1 f2 06 be 57 17 36 be dd 16 8d 3d
       0.060118575 -0.13178541 -0.17782341 0.068891264
000020 3e c2 18 3e a9 b4 cd 3d 4f 2f ef 3c d5 36 85 bd
       0.14917848 0.10044224 0.029197363 -0.06504599
000030 c0 62 06 3e ca 9f 18 3e 75 3a 90 3d a5 cc d0 bb
       0.13123608 0.14904705 0.070424 -0.006372052
000040 6c f5 06 be e2 e8 7b 3b f2 f1 05 be 66 d7 20 3d
       -0.13179559 0.003843837 -0.13080576 0.03926792
000050 70 4f ca bc 41 c1 86 bd 51 12 32 3e e8 aa a6 bb
       -0.024696082 -0.06579829 0.173898 -0.0050862916
000060 ac 9c c2 bc 74 c4 0a bd 49 8a bf bd a2 6c 44 3e
       -0.023756348 -0.03387876 -0.09352548 0.19182065
000070 62 f9 a8 3c 35 35 8a 3d 7b 39 07 3e cf d2 ec bd
       0.020626727 0.0674843 0.13205521 -0.11563646
000080 d2 2b 4e 3e 16 30 b9 bd cb 42 35 3d e0 14 a1 3d
       0.20133904 -0.09042375 0.044253152 0.0786531
000090 dc ad 8b 3d 8d d3 0b be b1 0a 24 3d 18 7f 2b 3e
       0.068202704 -0.13654919 0.04004926 0.16747701
0000a0 a3 d3 0d 3d 13 e5 25 bd 54 21 44 3e 4d 5d 0f 3e
       0.03462566 -0.040501665 0.19153339 0.14000435
0000b0 c2 43 a9 3b ac f3 da 3d 2e 5c ba 3b 87 43 2f be
       0.005165548 0.10691008 0.005687258 -0.17115603
0000c0 33 56 41 be 6a 73 f1 3c 5c 3f 51 3e 5f 1e d5 3d
       -0.18880539 0.029473979 0.20434326 0.104061835
0000d0 0a 4a 42 3d b2 24 0c bd f3 21 74 3d 66 6f 42 be
       0.04743389 -0.034214683 0.05960269 -0.18987808
0000e0 5f 04 2d be 77 3b 1a 3e 24 5b 2d 3d 0b e3 98 3d
       -0.16896199 0.15061747 0.042323247 0.0746518
0000f0 3f 41 39 be 4b 98 14 3e c9 a1 50 3e 8c 6b 11 3e
       -0.18091296 0.1451122 0.20374216 0.14201182
000100 3e 88 3a be 50 3c 28 3b 2c 22 79 be 76 79 ff bc
       -0.18216035 0.0025670715 -0.24329442 -0.031185847
000110 b7 6b 9c 3c e6 2d 70 3e 29 c3 b0 bd d4 16 18 be
       0.019094331 0.23455009 -0.08630974 -0.14852458
000120 19 d4 2a 3e 14 42 ec bd 6f 7d b8 3c b3 e6 57 3d
       0.16682471 -0.11536041 0.022520749 0.052710246
000130 56 b7 6d be 20 cf 77 3e 20 6a d8 3c 0e ea 4e be
       -0.23214468 0.24200106 0.026417792 -0.20206472
000140 52 69 f1 3d 9a af ef 3b 05 ba 1f 3e c2 fa 19 be
       0.117876664 0.0073146345 0.15598305 -0.15037063
000150 4e 72 19 be 05 bd 20 bd ac d6 99 bc c0 df 10 be
       -0.1498501 -0.039242763 -0.018779121 -0.14147854
000160 9d 4d 9f bd 18 bc ba bb 80 d3 81 be 03 ae e4 3b
       -0.077784754 -0.005698692 -0.25356674 0.0069787516
000170 93 32 6a 3e 4e 4a e5 3d 6c cb 76 be b9 d9 d0 3c
       0.22870855 0.11195813 -0.24101037 0.025494443
000180 99 13 36 bd 0e 4c 3c be b5 9c 2e be 88 1b 25 3d
       -0.044452284 -0.18388388 -0.17051966 0.04030946
000190 5f 7e b9 3b c0 25 3f 3e 3d 0d 15 3e 82 f9 37 bd
       0.0056608166 0.18666744 0.14555831 -0.044915684
0001a0 b5 72 3d bd 7e 38 21 bc 88 42 e1 bd 38 ad c9 bc
       -0.04625197 -0.009840129 -0.10999018 -0.02461873
0001b0 81 6f 79 3e 6f d7 9d bd 38 3f fc bd 7c da 72 3e
       0.24358942 -0.07707106 -0.123167455 0.23716158
0001c0 52 5c 05 3e dd 60 a3 bd 90 5c fc bd 0e b8 a7 be
       0.13023499 -0.079774596 -0.123223424 -0.3275761
0001d0 bc 45 ac bd b8 67 8b 3c 47 7e 7e be e6 7b f9 3c
       -0.08411738 0.01701723 -0.24852858 0.030454587
0001e0 c6 e4 71 be 90 bb a1 3d 00 d3 84 3e 64 4c 50 be
       -0.23622426 0.07897103 0.2594223 -0.2034164
0001f0 a5 5e d7 bc 90 23 a3 3e 0d 97 98 bd 80 46 6b 3e
       -0.026290247 0.3186307 -0.07450686 0.22976112
000200 bb 6e 63 3e a4 a7 3a be 57 e8 23 3e a7 27 39 bd
       0.22210209 -0.18228012 0.160066 -0.04520383
000210 44 ec 04 3e a3 d5 a0 3d cc 2e 4c be b6 e4 00 be
       0.12980753 0.07853248 -0.19939727 -0.12587246
000220 90 73 17 be e3 71 43 be 3e 5b f4 bd 92 01 3a 3e
       -0.14790177 -0.19086413 -0.119314656 0.18164662
000230 2f 9f 36 bd d3 aa 6a 3c 3e d8 c9 3c a9 cc 87 bc
       -0.044585403 0.014322954 0.024639245 -0.016577082
000240 5c eb 93 bd 76 01 01 3e 87 88 6b bc e0 c3 e3 3c
       -0.072226256 0.12598214 -0.014375812 0.027803361
000250 ac 23 53 be fa d8 3f bd fb c7 b4 bd d0 03 03 bc
       -0.20619076 -0.046837784 -0.08827206 -0.007996514
000260 3c 0a 13 3e b3 9a 97 3c cb de 52 3e 80 26 4e be
       0.14359373 0.018506384 0.20592801 -0.20131874
000270 07 9f 45 bd 17 87 82 bd b0 7e 06 3c 71 2a de bc
       -0.048247363 -0.063734226 0.008208916 -0.027119847
000280 51 bc 38 3d e4 19 ee 3d 45 14 e4 3d 2c 5c 8c 3d
       0.045101468 0.11626032 0.111366786 0.06853518
000290 e2 0e 1c be 04 01 4b 3d 96 a9 05 bf 86 fd b8 3d
       -0.15240052 0.049561515 -0.5221189 0.09032731
0002a0 6e 2a c3 bd 94 e9 75 3d 36 d1 d4 bd 3e 47 dd bd
       -0.09529577 0.06003721 -0.10391466 -0.10804604
0002b0 2e ad fe 3c 4c f1 d7 3d 58 be c0 3d fc c2 46 3d
       0.031088438 0.105440706 0.09411305 0.048525795
0002c0 db 54 0c be 3b 3f 21 3e a1 55 27 bd 84 e8 ce bd
       -0.13704245 0.15746777 -0.040853146 -0.101029426
0002d0 00 48 1d 3d c1 46 a6 3d 46 46 d2 3d 8e bf 0a bd
       0.038398743 0.08118964 0.1026731 -0.033874087
0002e0 54 ec 8b 3d 38 f4 02 be a8 b6 53 3c ae 71 57 be
       0.068321854 -0.12788475 0.012921967 -0.21039459
0002f0 99 6b c4 bd 2f c7 ec 3c ff ea 94 be ce 1a aa 3d
       -0.09590835 0.028903572 -0.29085538 0.08305894
000300 65 c3 88 3e 2a e2 43 bd 0a 94 10 be cd 63 c1 bd
       0.26711574 -0.04782311 -0.14118972 -0.094428636
000310 57 07 0d 3f f4 5b ac bd 5c 49 2f be b3 00 dd bc
       0.55089325 -0.08415976 -0.17117828 -0.026977872
000320 ae 84 f5 3d 4e 6b 1e 3e eb 28 ab bd b7 31 01 3c
       0.11988197 0.15470621 -0.08357414 0.007885388
000330 5e 32 19 3d 12 f4 d5 be 0c 25 e0 be 31 38 98 3a
       0.03740155 -0.41787773 -0.43778265 0.0011613426
000340 95 1b c3 3e a1 95 82 bd f1 9d 94 be c9 bc c3 3e
       0.3810698 -0.06376196 -0.2902675 0.3822997
000350 25 a3 3d 3e 4a 07 a3 3e 53 3c da be 22 25 ab bd
       0.18519266 0.318415 -0.4262415 -0.08356692
000360 7a 6d 88 be 2d 14 8c 3e 62 91 96 be a4 65 69 3e
       -0.26646024 0.27359143 -0.29407793 0.22792679
000370 18 e9 06 be c0 96 60 bc 04 04 cf 3e f0 7d d4 be
       -0.13174856 -0.013707817 0.4043275 -0.41502333
000380 53 c6 5e bd f8 8f 6e 3e 96 2e 98 bd b7 24 b3 3e
       -0.054388355 0.23297107 -0.074307606 0.3498895
000390 94 05 b4 bb ec e9 a1 be 3f 76 60 3b e3 b0 c2 be
       -0.005493829 -0.3162378 0.0034250168 -0.3802558
0003a0 f6 b2 4b bc cf e3 88 be 31 fc 6e 3c d4 b8 27 be
       -0.012432804 -0.26736304 0.014586494 -0.163791
0003b0 47 c9 16 be be d0 c1 bd 58 a9 08 3c 67 cb d8 3d
       -0.14725219 -0.094636425 0.008341156 0.10585671
0003c0 15 4f 9b be ab bf e9 3d 65 56 bb 3e 2c 2e c6 3e
       -0.30333772 0.11413511 0.3658935 0.387071
0003d0 60 c8 d6 bd 8b 0a b2 3e ca 81 50 3e e1 2c 1a 39
       -0.10487437 0.3477367 0.2036201 0.00014703303
0003e0 5d 5b 47 be 42 d3 18 3e 1b a2 08 3c 27 19 0e 3d
       -0.19468446 0.14924338 0.00833943 0.034691956
0003f0 c8 f6 8d 3c c1 60 15 3c b2 56 28 3d 49 46 fd bd
       0.017329589 0.009117306 0.041098304 -0.123669215

lstm.bias_ih_l0 f4 [200]
000000 fa 1a fc 3d 5d 50 ca 3b 43 53 c7 3d c9 aa 59 bd
       0.12309833 0.006174131 0.09732678 -0.05314139
000010 26 72 39 bd d2 a0 3e 3e e4 cf cc bc 49 bb e9 3d
       -0.045274876 0.18616036 -0.025001474 0.11412675
000020 27 61 79 3d bf a7 01 be 4b e3 0d 3d 62 53 3d 3e
       0.060883667 -0.12661646 0.03464059 0.1848884
000030 9c 78 e4 3d 23 9c 37 3e 98 31 e2 bc a4 d4 13 3e
       0.11155817 0.17930655 -0.027611539 0.14436585
000040 3f 73 4a 3e ca ef dd bd 6a 10 04 bb bf fa c2 3c
       0.19770525 -0.10836752 -0.0020151385 0.023801206
000050 ac bb 62 3d 6c 91 cd 3d a3 ea 35 3e 60 fe 09 bd
       0.05535476 0.10037503 0.17765288 -0.033689857
000060 e3 6f cd 3d d2 c0 03 3e 65 0e 3c bd d4 52 50 3e
       0.10031106 0.12866524 -0.045912165 0.20344096
000070 8f 05 4d 3e e2 72 45 bd 4d 68 ce 3d e0 c8 27 be
       0.20021652 -0.048205264 0.100784875 -0.16385221
000080 56 2c 94 bd 0d 08 ef 3b a2 46 17 3d c0 b7 32 be
       -0.07235019 0.007294661 0.036932595 -0.17452908
000090 e2 b5 f9 bd 50 bf 06 3e aa 3e 43 bd 90 c2 f9 3d
       -0.121928945 0.13158917 -0.047667183 0.12195313
0000a0 7d 0f e6 3d 66 bb 16 3d c1 09 d5 3c fc e7 9d bd
       0.11233423 0.03679981 0.026005628 -0.07710263
0000b0 e5 fa fa 3d 82 96 55 3e 2f 93 18 3d 1e ab 44 3e
       0.122548856 0.20858195 0.03724974 0.19205901
0000c0 ec 4e ff 3d 5c 25 57 3e 53 dc 10 3e 83 9f c1 3c
       0.12466225 0.21010345 0.14146547 0.023635631
0000d0 72 9c 5a 3e 6f 82 19 bd 99 11 d9 3d d1 bc 9e bc
       0.21348742 -0.037477907 0.105990596 -0.019377144
0000e0 46 a7 54 3e 29 cd fd 3b f8 e3 ad 3d cf 3a a9 3d
       0.20766935 0.0077454043 0.08490747 0.0826317
0000f0 46 4c 10 3d 62 38 6c 3e 47 60 f3 3c d5 61 43 3d
       0.03522899 0.23068383 0.029708995 0.04770072
000100 db e0 33 bc 57 f9 8c 3e 47 61 31 3d 8c 67 51 3d
       -0.010978903 0.2753398 0.04330566 0.05112414
000110 41 49 6a bc 09 99 a8 3c 07 65 06 3e 2f 89 99 bd
       -0.014299692 0.020580785 0.13124476 -0.07496869
000120 b0 59 44 3d f1 30 37 3e 0b 7a 20 be 74 c2 c5 3c
       0.047937095 0.17889763 -0.15671556 0.024140574
000130 75 b9 3e 3e 92 5e b0 3d e4 6a 8e 3d 91 f8 f0 3c
       0.18625434 0.08611788 0.069539815 0.0294154
000140 55 c2 ef 3d 77 e5 f1 3c 19 a0 a8 3d 62 37 39 3e
       0.11706988 0.029528363 0.08233661 0.18087533
000150 48 eb ef 3d d6 fa 1c 3e b4 d7 7e bc 64 21 99 bd
       0.11714798 0.15330061 -0.015554357 -0.07477072
000160 e3 a2 cd bd 6b 98 0d 3e cf 1d cd bb 0a 26 80 3c
       -0.10040834 0.13827674 -0.006259657 0.015643138
000170 8a fb cc bc 5c b6 04 3e ee 4b 18 3d 60 77 4f bb
       -0.025022287 0.1296019 0.037181787 -0.0031656846
000180 04 ce 89 3d 4e 1c 2f 3e bc ce 11 3d 38 ed 9d 3d
       0.067287475 0.17100641 0.035597548 0.077112615
000190 de 99 2d 3e 94 d7 55 bb 4d fe 45 bd 32 c1 a6 bc
       0.16953227 -0.0032629715 -0.048338223 -0.020355795
0001a0 51 48 e2 bb 3c 72 35 3c 3e a5 62 bd e7 a8 10 bd
       -0.0069055934 0.011074599 -0.05533337 -0.035317328
0001b0 1e fc dc 3c f6 a0 ee 3d 5e 49 03 be ef c1 cc bb
       0.026975688 0.116517946 -0.12820956 -0.0062487046
0001c0 a8 d2 2e 3e 7f 5e c0 3c ca e2 03 be 1b 05 5d 3d
       0.17072546 0.02348256 -0.12879482 0.053959947
0001d0 0a b3 1d 3c e4 02 a4 3d e6 54 eb bc 21 c1 09 be
       0.009625206 0.08008364 -0.028727006 -0.13452579
0001e0 ff 17 62 3e ea 91 d0 3d 86 7e 85 bc 70 c1 f7 bd
       0.22079466 0.10184081 -0.016295683 -0.12097442
0001f0 22 48 ab 3d a9 32 13 3e f4 7c 2f bd 1b 9e 2f 3d
       0.083633676 0.14374794 -0.042843774 0.04287539
000200 e5 23 12 3e 2e db be bd 5a af b3 3d f6 02 ac bb
       0.14271505 -0.09319149 0.0877368 -0.0052493764
000210 97 c1 8b bd 7d 32 cb bd da cf 55 3c 32 87 d1 bd
       -0.06824034 -0.09921739 0.013050044 -0.102308646
000220 d9 c4 e1 3d fb 77 61 3d d5 97 5b 3d 25 aa 09 be
       0.11023874 0.055046063 0.053611595 -0.13443811
000230 d0 38 27 3c d0 a9 c8 bd d0 25 9e 3d a3 ca d6 3c
       0.010206416 -0.09798014 0.07722056 0.026219672
000240 8d f1 75 bd f2 9e 84 3d df 6b ce 3d 9a 7b 3e bd
       -0.060044814 0.06475629 0.100791685 -0.046504594
000250 96 32 81 3d d7 f7 ba bd 5c f2 06 3e 18 30 2f 3d
       0.063084766 -0.09129303 0.1317839 0.042770475
000260 76 36 0f bd 8b ed f6 3d 25 4d 80 3d 22 68 82 3d
       -0.034964047 0.120570265 0.06264714 0.06367518
000270 74 cb fb 3c 38 33 f4 bb b1 b7 18 3b 41 d6 8b bd
       0.030736662 -0.007452395 0.0023302848 -0.06827975
000280 bc cc e6 3c e3 58 3e 3e f5 07 ba 3d 28 99 12 3d
       0.028173797 0.18588595 0.09083549 0.035790592
000290 b3 ec d2 bc 25 62 bf 3c 93 93 e2 bc b3 9c 60 bd
       -0.025747633 0.023362229 -0.02765826 -0.05483694
0002a0 2d 1b 54 3e 79 0c 18 3e 4e b1 32 3e e2 78 99 3d
       0.20713492 0.14848508 0.17450449 0.0749376
0002b0 85 72 6c 3e 06 4d 2e 3e a9 2e dc bd 08 95 1c 3d
       0.2309056 0.1702157 -0.10751087 0.038228065
0002c0 41 94 9a bc 65 4a f7 3d da 02 9f 3b ee 25 bb bd
       -0.018869521 0.120747365 0.004852635 -0.09138094
0002d0 20 d3 84 bd 7b 9e f4 3d b4 3a 67 3d 9f 4a 94 3d
       -0.064855814 0.1194429 0.056452468 0.07240795
0002e0 a7 6c 10 3e 87 26 fe 3c 75 f8 88 3d c4 d8 a1 3c
       0.14103948 0.03102423 0.066880144 0.019756682
0002f0 5e ed db 3d 25 cf 9d bd d1 e9 b3 bd ae 27 97 3d
       0.107386336 -0.07705525 -0.08784831 0.07380615
000300 67 6e 57 3d d5 18 11 3e 99 b4 7b bd e4 9e 1b 3d
       0.052595522 0.14169629 -0.06145153 0.037993327
000310 03 2c e2 3c f6 5b a7 bd a0 fa be 3d ba 3a 66 3d
       0.027608877 -0.08171837 0.09325147 0.05620835

lstm.bias_hh_l0 f4 [200]
000000 7f c5 3d 3e 7d fd 4a 3e 2b 0e 69 3e 41 b6 5c bd
       0.1853237 0.1982326 0.22759311 -0.05388475
000010 fe 83 a1 bd 50 f3 1a 3e 94 68 44 bd 45 8f 74 3d
       -0.07886504 0.15131879 -0.047951296 0.059706945
000020 9e fd 32 3d 4d e0 4a 3c 1b 39 20 3d 89 9b 43 3e
       0.0436989 0.012382579 0.03911696 0.191023
000030 b6 35 05 bd 4d fc fd bc a3 87 34 bd 3f 73 5d 3e
       -0.032521926 -0.031004095 -0.044074666 0.21625994
000040 8d af d2 bc b8 a0 7e 3d 51 73 f7 bd 7d 44 c2 bc
       -0.025718475 0.062164992 -0.12082542 -0.023714298
000050 0a 5e 1d 3e e5 55 8c bc 02 f3 a3 3d 8f b3 15 be
       0.15367904 -0.017130801 0.080053344 -0.14619277
000060 9f 76 2d bd 05 72 7e 3e 7e e0 f9 3d 00 43 5d 3e
       -0.042349454 0.24848182 0.122010216 0.2160759
000070 ff d2 85 3b 18 a4 16 3e 93 22 0f 3e ba 3b c3 38
       0.0040839906 0.14711034 0.13978033 9.3094495e-05
000080 4c 4e 48 3e ae 2e e5 3d a9 6d c4 3d 94 34 d4 bd
       0.19561118 0.11190544 0.095912285 -0.10361591
000090 4e a0 af bd 82 76 32 3d 93 d6 b8 bd 15 ac ae bd
       -0.085754976 0.04357005 -0.09025302 -0.08528916
0000a0 6d 52 b6 3d ee 5a fa ba 1c 5e 9c 3c 24 71 cb 3d
       0.0890244 -0.0019100585 0.019087844 0.09933689
0000b0 3e 4b 39 bd f6 80 13 3d 25 51 cc 3d f4 93 d6 bc
       -0.045237772 0.03601166 0.099764146 -0.026193596
0000c0 e4 d7 2d 3e 19 23 b7 3d 66 d0 8e 3d 44 b5 e8 3d
       0.16976887 0.08942241 0.069733426 0.11362699
0000d0 71 2f 2b bc 05 73 3a be 72 f9 16 3c db a4 36 3e
       -0.010448323 -0.18207939 0.009214746 0.17836325
0000e0 42 fd e4 3d 07 69 1a 3e ee 3c 0d 3e d1 25 cd bd
       0.111811176 0.15079127 0.13792774 -0.100169785
0000f0 8b 17 a6 3d 59 60 31 3d 95 73 91 3d 73 1e 62 bd
       0.08109959 0.043304775 0.07102124 -0.05520482
000100 8c 9f 6c 3e 2a 8a 51 3e 48 8d 08 bd d5 5a c4 3d
       0.23107737 0.20462862 -0.03333786 0.09587637
000110 74 ec 26 3e 99 90 bd bd f5 28 d4 3d c4 7e 49 3d
       0.16301137 -0.092560954 0.103593744 0.04919316
000120 60 f0 c0 3d 83 f2 51 3e c2 f2 46 bd a2 3e 24 3e
       0.09420848 0.20502667 -0.048571356 0.16039518
000130 b7 29 7c 3e e1 df 43 3e 38 66 9e bd 3b 20 b3 bd
       0.24625288 0.19128372 -0.077343404 -0.08746382
000140 3e 28 02 be f3 f4 02 3e 77 de 37 3e 4b 7a 15 3e
       -0.12710664 0.12788753 0.17955957 0.14597432
000150 77 66 f4 3a 33 a2 64 3e 0e c8 9d bd 2e b1 4a be
       0.001864626 0.22327499 -0.07704173 -0.19794151
000160 18 8e 0f 3e e6 04 50 3c 85 47 49 bd 3c 1f a4 3d
       0.14019048 0.01269648 -0.049140472 0.0801377
000170 4f f9 21 be 23 5a 0c bd 9d 5e 96 bd 7d e4 ac 3d
       -0.1581776 -0.03426565 -0.07342265 0.08442018
000180 ba 54 b9 3d 8f 27 8b bd 23 12 2a bc bb 91 bb 3c
       0.090493634 -0.067946546 -0.010380301 0.022896638
000190 b2 63 31 3c 4b 34 ae 3d ce 92 b5 bd 20 5a 75 bb
       0.010826992 0.08506068 -0.088658914 -0.0037437752
0001a0 10 c9 09 3e c2 0f 2a bc 0d b9 a1 3d c5 18 03 3e
       0.13455606 -0.0103797335 0.07896624 0.12802418
0001b0 68 20 02 be a3 16 94 bd 8d 97 b9 3d 8b 6e 55 bd
       -0.12707675 -0.0723088 0.09062109 -0.052107375
0001c0 10 f8 a6 bd 78 bf 50 3c dd 8c c4 3c 1f d9 ef bd
       -0.08152783 0.012740962 0.02399295 -0.117113344
0001d0 4f 7e c1 bd 69 e7 0a be 8e 47 34 bd 66 9e da bc
       -0.094479196 -0.13564838 -0.044013552 -0.026686858
0001e0 63 49 d8 3d 84 55 cc 3d 19 77 35 3d 05 a5 0d bd
       0.105608724 0.09977248 0.044303034 -0.034581203
0001f0 76 c9 d9 bd 11 1d 04 3e 09 b4 2b be 7e 11 84 3c
       -0.10634129 0.12901713 -0.16767897 0.016121622
000200 40 72 b0 3d 6b 48 43 bd f7 04 02 bd c9 4a 18 bd
       0.086155415 -0.047676485 -0.031743016 -0.037180696
000210 e5 9b b4 bd f9 84 9b bc 34 4d 03 3d e1 74 57 bb
       -0.08818797 -0.018984305 0.03205605 -0.0032876062
000220 14 75 bf bd 80 a5 97 bc c8 31 06 be fb 7d 8a bd
       -0.09348503 -0.018511534 -0.13104928 -0.0676231
000230 0f 95 58 3c 98 11 c8 3d 6d a0 31 bd b4 e3 47 bc
       0.013219132 0.09768981 -0.043365885 -0.012200285
000240 c1 c3 05 3e 2c c3 f0 3c 25 fc bb bd 19 50 2d be
       0.13062955 0.02938994 -0.09178952 -0.16925086
000250 0d 48 b2 bd 3e 3e a3 3d 46 b1 65 bd 3d 13 1f 3e
       -0.08705149 0.07970856 -0.056077264 0.15534683
000260 b7 86 c5 bc 38 c2 04 3e cc a2 cf bd b7 56 b1 bd
       -0.024112089 0.12964714 -0.10138473 -0.08659118
000270 a9 89 b8 bc f1 a1 0e bc 72 14 85 bc a2 3f f6 3c
       -0.022526579 -0.008705602 -0.0162451 0.03005964
000280 9c 04 3b 3d 25 a3 82 3d 6e 72 19 3d 34 32 1e 3d
       0.045658693 0.063787736 0.037462644 0.038622096
000290 69 1b 98 3d b9 c2 8d 3e f4 ff 84 3c bc ee 85 bd
       0.07427103 0.27687624 0.01623533 -0.065396756
0002a0 33 14 cf 3d b4 ef 0d 3e b6 88 e9 3d 70 de fb 3c
       0.101112746 0.1386097 0.11403029 0.030745715
0002b0 b7 7b e9 3d d6 3a 41 3e 81 e6 32 bd 29 21 e8 3c
       0.1140055 0.188701 -0.043676857 0.028336124
0002c0 9a 6d f9 3c 14 9d 17 3c 6f ee 3c 3e 49 16 c5 3d
       0.03044777 0.009253759 0.1845033 0.09623391
0002d0 89 90 10 3d 54 2f f4 3d f0 f3 13 3e 32 e5 4f bd
       0.03529409 0.119230896 0.14448524 -0.050755687
0002e0 93 df d2 3c c1 82 de 3d b4 7a 87 bd c9 68 a3 3d
       0.025741374 0.10864783 -0.06615201 0.079789706
0002f0 57 98 ed 38 fc d8 6c bd c6 69 d7 3d 58 77 ec bd
       0.00011329416 -0.05782412 0.105182216 -0.115462005
000300 ce 3b af bc c9 a8 54 3c 9b 70 11 be 34 c2 10 3d
       -0.021390822 0.012979695 -0.14203112 0.035341457
000310 29 5d 04 3e 6d 99 ee 3b c4 61 9f 3d 18 f9 cc bc
       0.12926163 0.0072814734 0.07782319 -0.02502112

lstm.weight_ih_l1 f4 [200, 50]
000000 7d 77 cf 3d 08 d6 fc bd 86 7b b8 3d 71 54 cd 3d
       0.101302125 -0.12345511 0.09007935 0.100258715
000010 84 9d a4 bd cc b1 04 be f2 e7 23 3e 11 6d 85 be
       -0.08037856 -0.12958449 0.16006449 -0.26059774
000020 99 65 80 bd e5 66 df be 9d ab 56 3d be ba 48 3d
       -0.06269378 -0.4363319 0.052409757 0.049006216
000030 49 dd 01 bd 26 51 9a 3c c9 74 06 3e ad 98 b7 3d
       -0.031705175 0.018837523 0.13130488 0.089646675
000040 17 26 81 be e7 1f fd 3b be df 93 bd 13 06 de 3b
       -0.25224373 0.0077247503 -0.0722041 0.0067756264
000050 4d 1e 33 be b2 22 1d bd f5 43 52 bd 81 b4 d8 3b
       -0.17492028 -0.038363166 -0.05133434 0.0066133146
000060 c6 bf 6f 3d d6 33 a4 bd 04 38 eb 3c 19 4a d0 b9
       0.0585325 -0.080176994 0.028713234 -0.0003972806
000070 21 87 e5 bd 15 9d 14 3b df 4c f1 3b 44 51 cf 3d
       -0.112074144 0.0022676636 0.0073639 0.10122922
000080 fc 05 71 be 74 6b 8c 3c 4b 13 73 3d e1 c2 d4 bc
       -0.23537439 0.017141081 0.05934457 -0.025971832
000090 ed 64 06 3e da 66 d1 bb 5a f9 08 3e 7c 53 6c 3e
       0.13124438 -0.0063904347 0.1337637 0.23078722
0000a0 27 4b 8f 3c 72 e6 77 bb 0a 1f 0a be ea 52 96 bd
       0.01749189 -0.0037826565 -0.13488403 -0.07340033
0000b0 6c 2a 96 3d fd 09 20 3e 3e 77 1e 3d 73 26 b3 bc
       0.0733231 0.1562881 0.038687937 -0.02186892
0000c0 ac 96 90 3d 5a 50 f0 bb 20 16 9d bd e2 f6 06 3e
       0.070599884 -0.0073337974 -0.07670236 0.13180116
0000d0 38 c6 91 3d 58 72 1e 3e 44 17 75 bd 5e b4 9f bc
       0.07117885 0.15473306 -0.05983664 -0.019495185
0000e0 6d fd 95 bd e1 9b 75 3d 12 eb 5f 3e 69 82 1f be
       -0.07323728 0.05996311 0.21867016 -0.15577091
0000f0 4f e7 7d bd b0 59 b7 3d 63 4a 2e ba 45 30 30 3d
       -0.06198817 0.089526534 -0.0006648658 0.043014783
000100 60 90 80 bb d2 c7 1e 3d af df 23 3c a3 91 80 bd
       -0.003923461 0.038764782 0.010002061 -0.06277778
000110 45 15 e1 3d da 00 cd 3c 92 1f 3e 3c ce 50 95 bd
       0.10990385 0.02502482 0.011604207 -0.07290803
000120 fa e4 83 bd 9f 00 4f bd 2b 41 84 bd eb 81 e4 bd
       -0.06440158 -0.0505377 -0.06457742 -0.111575924
000130 68 b2 b8 3d 01 02 18 3e 41 d4 e4 bb a3 33 cc bc
       0.09018403 0.14844514 -0.0069833104 -0.024926966
000140 49 b2 e6 3d cb 2a 73 3d a6 f9 84 bd 7b 16 f6 bd
       0.11264474 0.059366982 -0.06492929 -0.120160066
000150 bd 2e ae bd ae b0 00 be 85 c4 8e 3e 65 16 6d bd
       -0.08505008 -0.12567398 0.27884308 -0.057882685
000160 ad da b7 3d 5a 3d 7e 3d 01 05 08 3d bc 51 64 bc
       0.08977256 0.06207023 0.033207897 -0.013935503
000170 36 97 63 bd 89 8c d6 3d 30 7a 44 bd a1 7f c4 3d
       -0.055564128 0.10476024 -0.04796809 0.09594656
000180 a3 08 37 bc 4a 73 0b be ed da 10 be 73 fa b6 bd
       -0.011171493 -0.13618198 -0.14146014 -0.08934488
000190 38 f8 81 bd bb 7d 93 3d b4 9e 20 3d 53 ab 96 bd
       -0.06346172 0.072017156 0.03921385 -0.07356896
0001a0 2f 17 fb bd bb f3 25 bd 9c 00 34 3c d6 28 b0 bd
       -0.12260281 -0.040515643 0.010986473 -0.08601539
0001b0 53 a1 20 3e a4 b8 8f bd f1 b2 7d 3d ed a7 32 3c
       0.1568654 -0.07017639 0.06193823 0.010904294
0001c0 60 6b 6b bc 22 70 59 bc c6 8a 7e bd ee cc 77 bd
       -0.014368862 -0.013271363 -0.062144063 -0.06049817
0001d0 c1 36 79 3c 7e 0b 0d 3e 90 0b 6a 3d 49 33 0d 3d
       0.015210808 0.13773915 0.057139933 0.034472737
0001e0 e0 5d 2b be 3b ef 95 bc 01 b8 84 bc b6 8b d9 bd
       -0.16735029 -0.01830255 -0.016201021 -0.10622351
0001f0 e1 7d 07 3e ae 2b 41 3e 3a c0 a2 bd 9d b3 a2 3c
       0.13231613 0.18864319 -0.079468206 0.019861037
000200 dc 94 1b 3e ea 0a 94 bd 72 50 02 3e 0b 9a a2 bc
       0.15193504 -0.07228644 0.12726 -0.019848844
000210 23 91 0a be be e9 c0 3b c9 a1 10 be a6 5c 82 3d
       -0.13531928 0.0058872392 -0.14124216 0.063653275
000220 1c fb 85 3d 09 00 e0 bd b0 ce 12 3c 4c b7 01 bd
       0.06542036 -0.10937507 0.008960411 -0.031668946
000230 12 1e 8f bd 5e 30 03 3e e3 18 27 3e 88 d5 05 bc
       -0.06988157 0.1281142 0.16318087 -0.008168586
000240 63 6e 59 3d aa c0 b2 bb 14 04 64 bd 16 f2 63 bd
       0.05308379 -0.0054550963 -0.05566795 -0.055650793
000250 76 57 2d be 90 c3 f8 3d 4f bf 0c 3e f9 5f 8d 3e
       -0.16927895 0.121466756 0.13744853 0.27612284
000260 38 5b 21 be e9 15 de 3d 40 dd b2 bd fe 0e a9 be
       -0.15757453 0.10844023 -0.08733606 -0.3301925
000270 0b ca 14 be 58 c3 a8 3d 6b fd a1 bc 52 c7 2f 3e
       -0.14530198 0.08240384 -0.01977416 0.17165878
000280 d8 b3 31 bd 5c 63 26 3e a0 7a 48 3e 03 ca a7 bd
       -0.043384403 0.1624884 0.19578028 -0.081928276
000290 ea 77 3a be 76 ac d8 3b 5c 24 90 be 75 48 0b 3e
       -0.18209806 0.006612356 -0.2815274 0.13601859
0002a0 1c 18 1e be b9 61 6a 3d 52 a5 51 3e a2 33 2b be
       -0.15438884 0.0572221 0.20473221 -0.16718915
0002b0 3c 09 26 3e 3d d0 b1 bd 62 28 d3 bd 9f 06 80 3e
       0.1621446 -0.086822964 -0.10310437 0.25005051
0002c0 10 d9 89 be 21 91 3d bc 17 7f ca 3c b8 48 e2 bd
       -0.26923418 -0.011570246 0.024718804 -0.11049026
0002d0 6b e7 62 3e a6 a9 d8 bc 3b b6 a2 3d 59 ab 27 be
       0.22158591 -0.026448082 0.07944914 -0.16373958
0002e0 c9 8c f8 bd 0f 42 59 3d 28 93 89 3d 25 e3 01 be
       -0.12136228 0.053041514 0.06717521 -0.12684305
0002f0 e7 58 c9 bd 46 09 56 3e b0 d2 bf 3c 5b d0 02 bd
       -0.0983141 0.20901975 0.023415893 -0.031936985
000300 84 7e 68 3e 99 8c 7f 3c 4b 64 f8 3a 4a 2b 69 3e
       0.22704512 0.015597486 0.0018950788 0.2277042
000310 68 0a 83 3d 06 32 2f bd 17 f2 a6 3b c6 e5 e6 3d
       0.06398469 -0.042772315 0.0050947773 0.112742946
000320 66 74 2f 3d 31 99 9d 3d 00 da 8b 3d 27 23 9e 3d
       0.042835616 0.076952346 0.068286896 0.077215485
000330 52 2c 61 3d 8c 3f 4b be 00 c5 0a 3e 1e a9 0a 3d
       0.054973908 -0.1984846 0.13551712 0.03385269
000340 28 87 9f 3d df 03 9d 3e 8b 1c a1 bc d4 7e c7 3c
       0.07789451 0.30667016 -0.01966693 0.024352469
000350 fc 5e a8 3d 51 13 0d 3e c6 c7 9e bd 20 29 9f bd
       0.08221242 0.137769 -0.077529475 -0.07771516
000360 f7 4d 8c be 5e 01 93 3d b1 e9 5a 3d 54 14 c0 3d
       -0.27403232 0.07177995 0.05344552 0.09378877
000370 0a dc bb bd ba f1 58 be e0 a4 17 3e e3 52 23 bc
       -0.091728285 -0.21185961 0.14808989 -0.009968492
000380 a1 7c da ba 46 e5 1a 3d 2d a9 fb bd d5 6c e5 bc
       -0.0016669222 0.03781631 -0.12288127 -0.028005997
000390 1b d9 3f 3e 5f 41 a9 bc f3 63 d9 3c 21 60 b7 bd
       0.18735163 -0.020661054 0.026536917 -0.08953882
0003a0 4b 77 c9 bd 0f 2d 62 be b6 da 4d bd 22 07 90 3d
       -0.098372065 -0.22087501 -0.050257407 0.070326105
0003b0 6a 65 bc bd 42 c8 52 be 53 56 1a be 4c 6a 3c 3e
       -0.09199031 -0.20584205 -0.15071993 0.18399924
0003c0 71 2c 3a bd ed 0d 46 3c c2 c8 5c 3e 44 1d 54 3e
       -0.04545254 0.012088281 0.21560958 0.20714289
0003d0 21 83 93 bd 79 7f a8 3e 04 94 ed 3d 81 4e 43 bd
       -0.07202745 0.32909754 0.11600497 -0.04768229
0003e0 83 f7 a9 be 2a 1a 46 3e dc 66 76 3c 9d dc 23 3b
       -0.3319665 0.19345918 0.015039172 0.0025003322
0003f0 26 75 ab bd 63 44 4f 3d 0a cb 23 3b 1c f3 8a 3c
       -0.08371954 0.050602328 0.0024992847 0.016961627

lstm.weight_hh_l1 f4 [200, 50]
000000 f5 b5 05 3d 6e 7a 9c bd c3 47 3d bc 4d 86 57 3e
       0.03264423 -0.07640539 -0.011552754 0.21047325
000010 ef 5e cb 3d a3 0d ba bd 1c 2b ca 3d 27 a1 84 3b
       0.099302165 -0.09084632 0.09871504 0.004047531
000020 89 52 71 bd f6 4d 30 3c a4 48 91 3e 08 37 2e be
       -0.058916602 0.010760775 0.28375733 -0.1701318
000030 84 3c 0b 3e 00 95 40 3d 08 3a 2a be b2 92 c4 bd
       0.13597304 0.047017097 -0.166237 -0.095982924
000040 b0 42 8d bd 73 34 0b 3d 41 d9 70 bd 36 3a 37 be
       -0.06897485 0.033985566 -0.05880094 -0.178933
000050 63 0a 12 3e de c4 65 3c 40 9c 57 be f7 81 32 be
       0.14261775 0.014023988 -0.21055698 -0.1743239
000060 cd fa 9d bd b0 aa 6d 3e 9e f1 30 3d 66 97 a5 bd
       -0.07713852 0.23209643 0.043199174 -0.080855176
000070 1c 6b 4e be 12 08 af 3d a8 b7 05 3e ce cd e9 3d
       -0.20158046 0.08546461 0.1305834 0.11416207
000080 1a 55 0c 3e e7 ad 8e 3d 49 50 c1 3c 71 b3 bc bd
       0.13704339 0.06966763 0.023597853 -0.09213913
000090 22 66 e2 bd 90 0f c4 3d bd 03 e0 3d fb 6d 16 3e
       -0.110546365 0.09573281 0.10938213 0.14690392
0000a0 62 9b 87 3e 15 6b 89 3e df 39 95 3d 64 0f ca bd
       0.26485735 0.2683951 0.07286429 -0.09866217
0000b0 fe ff 2f 3c 86 d6 8b bc b5 21 87 bd 93 5e 26 3e
       0.010742186 -0.017070066 -0.06598226 0.16247015
0000c0 b8 b1 9a 3d c5 30 aa bd c5 57 ec bd ce e0 0f be
       0.075534284 -0.08310083 -0.11540178 -0.140506
0000d0 09 42 33 be f5 fe 6f 3e 0c 75 41 3e 86 61 b7 bd
       -0.17505659 0.23437102 0.18892306 -0.08954148
0000e0 ba f5 b7 bb d4 af d3 3b b9 01 b1 bd ad 24 0f bd
       -0.0056140097 0.0064601693 -0.08642907 -0.034947086
0000f0 24 45 8e 3a f8 3d 6d 3a 5d 6d 62 3e 26 31 f8 3d
       0.0010854346 0.00090500666 0.22112031 0.12118749
000100 40 87 0b 3e dc 1c 2c 3d e6 cd 7b 3d 10 02 33 bd
       0.13625813 0.04201971 0.061475657 -0.04370314
000110 f0 1b 5a be cd 84 eb bd b0 fc 82 be 55 75 64 bd
       -0.2129972 -0.11499939 -0.2558341 -0.05577596
000120 96 48 28 be 6b c9 bc bc 4d 08 0d be 7e 23 a1 bd
       -0.1643394 -0.023045262 -0.13772698 -0.07868098
000130 9a 32 5a 3d 65 3e 99 3a 67 2b 4f be 86 a7 5b 3c
       0.053270914 0.0011691569 -0.202314 0.01340664
000140 e4 c1 6a bc a2 54 ec bc 3d be fc 3c 0d 82 91 3d
       -0.014328454 -0.02884895 0.030852431 0.07104883
000150 84 cf 00 be ac 2e 89 be 3f 92 27 be 58 b9 18 be
       -0.12579161 -0.2679342 -0.16364382 -0.14914453
000160 c4 63 d5 3d 1b e8 a5 3d 9b fc d6 bc a6 cd 0f bd
       0.104194194 0.08100911 -0.026243499 -0.03510823
000170 29 a1 fa bd b2 b8 92 3d 4c 1e 87 bd 81 5d 11 be
       -0.1223777 0.07164134 -0.065975755 -0.14195825
000180 82 ae 7a 3c c5 78 f2 3b 1d 71 b1 bc 61 44 7c bc
       0.015300395 0.0073996508 -0.021660382 -0.015397162
000190 72 e1 e5 bd 8e a5 9c 3c ba c9 16 be 0c 66 30 3e
       -0.11224641 0.019121911 -0.1472539 0.17226428
0001a0 c2 28 4a 3e 3d 75 df bd ca 1e 0c be fe d0 8b 3d
       0.1974211 -0.10911033 -0.1368362 0.068269715
0001b0 a3 15 d9 3d d7 ef b7 3d cc 6d c8 bb ea 37 69 bd
       0.1059983 0.08981293 -0.0061166044 -0.05693809
0001c0 f7 07 54 bd b1 f7 cd 3d d5 bf 10 bd 15 07 9f bd
       -0.05176541 0.10057009 -0.035339195 -0.07765023
0001d0 01 48 dd 3d b2 30 41 bd 67 45 b0 bd 3a af e6 bd
       0.10804749 -0.04716558 -0.086069874 -0.112638906
0001e0 d3 a6 23 3e b6 b7 d3 bd ba ec 75 be 54 7d 53 bd
       0.15981607 -0.103377745 -0.24016085 -0.051633194
0001f0 09 69 b7 3d 82 6a 22 be 52 1b 0c 3e 48 1e cb bc
       0.08955581 -0.15860942 0.13682297 -0.024794713
000200 59 6e 1f be 19 4a f1 3d 28 3d 33 3e 96 63 a7 3c
       -0.15569438 0.11781711 0.17503798 0.020433228
000210 9d 38 a5 bd 12 ef 67 3d c6 3d ca bd 9f 6b 56 be
       -0.08067439 0.05662448 -0.098750636 -0.20939492
000220 57 eb c2 3c 2d 43 37 3d 5d c8 97 3d 1f ff 8a 3d
       0.02379386 0.0447418 0.07411263 0.06786942
000230 f3 0b ff bd 50 bd 97 3d 9b 72 bd 3d 70 fa ae 3c
       -0.12453451 0.07409155 0.09250375 0.021359652
000240 c6 e9 0f 3d 86 da c0 3d b5 1e 3f bd ae da e4 bc
       0.035135053 0.0941668 -0.046660144 -0.027936306
000250 f7 e2 d5 bd 55 84 c9 3b 33 9f c9 bd d3 c2 7c be
       -0.10443681 0.0061498084 -0.09844818 -0.24683695
000260 d5 40 ab bd 53 b3 20 3e e6 9d 88 3d 24 d2 10 be
       -0.08361975 0.15693407 0.06670742 -0.14142662
000270 21 df d3 bd 72 37 06 3d 10 ff 8b bc dd 01 83 3e
       -0.10345293 0.03276772 -0.017089397 0.2558736
000280 8f 86 d8 3d 0b 62 9b bc 19 da d7 3d e5 be e8 3d
       0.1057254 -0.018967649 0.10539646 0.11364535
000290 34 e8 26 3e a2 89 c2 3d 47 b5 22 3e 92 df 6d be
       0.16299516 0.094989076 0.15889464 -0.23229817
0002a0 22 91 fe bd 56 1b c4 bd 29 6d 3c 3e f3 7d 5d 3e
       -0.12430026 -0.095755264 0.18401016 0.21630077
0002b0 b4 e2 8b bd ee 55 44 ba 13 42 3e bd ab 46 ad 3d
       -0.068303496 -0.0007489611 -0.046449732 0.084607445
0002c0 93 58 42 bd 71 69 13 3e 11 43 02 be b5 b7 aa 3d
       -0.047447752 0.14395691 -0.12720896 0.083358206
0002d0 0c fd 95 bc 79 5b e7 bd 8d 7d 54 3e c3 ef 22 bd
       -0.018309139 -0.11296744 0.20751019 -0.039779436
0002e0 47 89 5b bd 77 ee 9d bd 7e d9 85 be 37 19 1e be
       -0.053597715 -0.07711499 -0.26142496 -0.15439306
0002f0 d6 5b f2 3d cf b8 80 be b6 10 7b 3e cc 1e 5b bd
       0.118339226 -0.25140998 0.24518093 -0.053496167
000300 0a ee ba bd b3 5d 94 3c fe 99 ce 3c 1d ca af bc
       -0.091274336 0.018111086 0.025219914 -0.02145868
000310 af ac ef bd 2e a8 b9 3c 68 ec 6d 3d 86 60 c5 bd
       -0.11702859 0.022663202 0.058086783 -0.09637551
000320 0c 5d d6 bd 10 3b 6a be 59 2a 4e bd b8 a7 e7 3d
       -0.10466966 -0.22874093 -0.050333355 0.11311287
000330 d2 9a 9e 3d 21 af 13 3d 0c 46 49 be 49 2f e3 3d
       0.077443734 0.036055688 -0.19655627 0.11093003
000340 28 8f 5c 3e 81 7a a6 3d c1 a1 c7 bc e6 77 98 3d
       0.21538985 0.081288345 -0.024369122 0.07444744
000350 e8 f9 f4 bb d1 14 c7 3d 76 50 ad bc 99 bc d7 3b
       -0.00747608 0.09720767 -0.02115653 0.006583762
000360 6e 19 08 3c 23 17 1d 3c a3 b4 90 3c 1f 4a b7 bd
       0.008306844 0.009588036 0.01766426 -0.08949684
000370 cb 46 20 3e a3 58 e6 3d 73 ee 87 3c 34 33 56 be
       0.15652005 0.11247375 0.016593194 -0.2091797
000380 5e d0 15 3d d0 94 d7 3d c2 04 38 3e 4e 43 23 3e
       0.036575668 0.105264306 0.17970565 0.15943643
000390 7d c2 54 bd dd 9f 25 3e db 94 27 3e 68 2d 22 be
       -0.05194329 0.16174264 0.16365378 -0.15837634
0003a0 0d 19 69 3e 2f 64 32 bd 10 63 f1 3c 38 73 b7 3c
       0.22763462 -0.043552574 0.029466182 0.022393808
0003b0 4f 37 e4 bd 9b 5d 14 be 27 79 8b bb 62 a4 b7 bc
       -0.11143362 -0.14488833 -0.004256386 -0.022417251
0003c0 48 16 82 3d 78 0c 24 3e 33 4d 86 bd e7 a8 f1 3d
       0.06351906 0.16020381 -0.06557693 0.11799794
0003d0 db 24 4e 3d a0 42 b6 bd 3c b5 a6 bd 67 5e 37 3d
       0.050328117 -0.088994265 -0.081400365 0.044767763
0003e0 52 25 81 3d 64 27 07 bd ba 74 11 3c 50 8a 34 bd
       0.063059464 -0.03299655 0.008877927 -0.044077218
0003f0 68 fa d3 3c de ab 8a 3d 1e 15 1d 3d 28 8d a8 bc
       0.025876239 0.06771062 0.038350217 -0.020575121

lstm.bias_ih_l1 f4 [200]
000000 68 15 0a be 30 1c 1c 3e 26 0e 01 3e 60 e3 5d 3e
       -0.13484728 0.15245128 0.12603053 0.21668768
000010 ee e7 f3 3d 2b be 41 bd 97 c3 43 bc 7f 0e 35 bb
       0.119094715 -0.0473005 -0.011948488 -0.0027627049
000020 90 3e 01 3e b3 a4 00 3e 66 59 38 3e 40 c1 f7 bc
       0.12621522 0.12562828 0.18002853 -0.030243516
000030 4d 5f bb bd a5 08 13 3e 89 e5 9a bb 14 a7 0a be
       -0.091490366 0.14358766 -0.0047270698 -0.13540298
000040 b0 71 2c 3d 09 4b c0 bd fd 1f 96 3b 89 53 03 3e
       0.04210061 -0.09389312 0.00458145 0.12824835
000050 ae 03 6c 3d 53 37 31 bd 46 74 6d 3d 49 fc f1 bc
       0.057620697 -0.043265652 0.057972215 -0.029539244
000060 48 10 da 3b 91 72 4d 3d 92 86 f1 bd 44 6d 2e bd
       0.006654773 0.050158087 -0.117932454 -0.042584673
000070 bf ad 50 3e 2d 40 97 bc 64 6b f3 3d 46 30 db 3d
       0.20378779 -0.018463219 0.118857175 0.10702567
000080 97 87 c5 3d 55 67 5f 3e 4a 96 d0 b9 77 73 8b bd
       0.09645002 0.21816762 -0.00039784826 -0.068091325
000090 ca 1d 16 3e c5 ae 4a 3e d9 e7 47 3b 16 6f 0c 3d
       0.14659801 0.19793232 0.0030503182 0.034285627
0000a0 ed cf 83 bd 3b 24 a3 bd 9b d5 64 3e 79 4a 25 3e
       -0.06436143 -0.07965895 0.22347109 0.1614169
0000b0 15 d1 18 3d e5 df 2c be e4 19 0e 3e 8b a3 e7 3d
       0.03730877 -0.16882284 0.13877064 0.1131049
0000c0 f1 7d ba 3d 68 b9 06 3e 89 dd 45 bc 15 3f a5 3d
       0.09106053 0.13156664 -0.012076744 0.080686726
0000d0 bb f1 f1 bd 9d fa 3b 3c a4 25 ee bd 76 54 be bd
       -0.118136846 0.011473325 -0.11628273 -0.092934534
0000e0 c7 95 af bd b6 7e 83 bd 8e 44 05 bc 59 32 f7 3d
       -0.0857349 -0.064206526 -0.0081340205 0.1207015
0000f0 1b 69 94 bd b9 24 18 3c 09 ac a2 bc d6 f9 93 bd
       -0.0724661 0.009286099 -0.019857423 -0.07225387
000100 9f 20 02 3e 8b 56 36 3d 18 dc d4 3d d6 91 51 3e
       0.12707756 0.044516128 0.10393542 0.20465788
000110 93 25 f8 3d 19 db f5 3d c8 7a 91 3d 6c 83 1a 3e
       0.12116542 0.1200468 0.07103497 0.15089196
000120 a0 dd 9e 3d 9c 15 6a bb eb a0 18 bd c9 e1 d1 3d
       0.07757115 -0.0035718447 -0.03726284 0.10248143
000130 57 11 0b 3e 89 60 ae 3d 02 d2 ee bc 0d 09 e1 3d
       0.13580833 0.08514506 -0.029152874 0.109880544
000140 47 cc 25 3d f4 06 9d 3d 6f f0 06 3e 72 6c d4 3d
       0.040478017 0.07667342 0.13177656 0.10372247
000150 bd 7a a9 bd db 94 ec 3d 7a 7e c0 bb 08 d3 a9 3d
       -0.082753636 0.115518294 -0.005874452 0.08292204
000160 f5 83 e6 bc 55 5f ec 3d f4 6a ea bd 90 a9 19 bd
       -0.028139094 0.11541621 -0.11446181 -0.037515223
000170 bf 64 2d 3e b2 d6 18 3c da b9 8d bd dc 6d 02 3e
       0.16932963 0.009328531 -0.06920214 0.1273722
000180 4e b0 f8 3d 41 4f c8 bc 43 cf 1d 3e e6 c6 8e 3d
       0.121430025 -0.024451854 0.15411095 0.069715306
000190 ec 6b 13 3d 58 19 9f 3d 73 c9 f9 3d 85 63 f2 3c
       0.035991594 0.07768506 0.121966265 0.02958847
0001a0 4b fe b0 bd 0e b6 48 bd 8b 8a 51 be 2c 41 94 bd
       -0.086422525 -0.049001746 -0.20463006 -0.07238993
0001b0 52 0d c6 bd cd 19 2b 3d bc e6 df 3d 3d 54 a3 3c
       -0.096705094 0.041772652 0.10932681 0.019937629
0001c0 c5 00 3f 3e 8b d0 05 3b 1f 96 d8 bc e4 f0 b9 bd
       0.18652637 0.002041849 -0.02643877 -0.09079149
0001d0 e2 f1 ec 3d 80 7e a6 bd 66 cb 1c bd ac 00 ca 3d
       0.11569573 -0.08129597 -0.038279913 0.098634094
0001e0 13 08 f2 3d df ae cf 3d 2f ae 8a bd cc ac b5 bc
       0.11817946 0.10140776 -0.06771504 -0.022177123
0001f0 76 b7 6b bd fa 89 96 3d fe fb 02 be 1f af 1a 3e
       -0.05754801 0.07350536 -0.1279144 0.15105866
000200 b9 c9 a6 3c 9f 7a c6 3c fd 1d 07 3c fb 5e 01 bd
       0.02035986 0.024228392 0.008246896 -0.03158472
000210 29 de ac 3d 47 db 91 3d bc d1 c6 bd cd 94 9a bd
       0.08440811 0.07121902 -0.097079724 -0.07547913
000220 3b bf 57 3c a8 4e fe ba ab 22 14 3d e8 6b 04 be
       0.0131681515 -0.0019402103 0.036165874 -0.12931788
000230 1a 26 02 3e 1f 46 61 3d 75 39 b2 bd 6a cd dd 3d
       0.12709847 0.054998513 -0.08702365 0.10830195
000240 4b 05 20 bd 85 45 d6 3d 19 41 9e bd 9a 0f a4 3d
       -0.039067548 0.104624785 -0.0772726 0.08010788
000250 4e a7 1b be 09 bb fc 3c 07 fa 50 3e 21 1c 31 bd
       -0.1520054 0.030850904 0.20407878 -0.043239716
000260 b7 78 24 3e 5e f0 22 3d 2d 62 6e bb 05 ad 23 3e
       0.16061674 0.039780013 -0.0036374435 0.1598397
000270 de f7 46 3d 61 5d 84 3e 38 30 19 3e b4 c6 44 3d
       0.04857623 0.25852492 0.149598 0.04804106
000280 8f 3c 55 3e 9e cf 28 3e a7 4e f3 3d 55 48 c6 3d
       0.20823883 0.1648545 0.11880236 0.09681765
000290 b9 ac 19 bc b3 66 79 3e 98 9c 05 3d 65 2b 01 3e
       -0.009379559 0.24355583 0.032620043 0.1261421
0002a0 b3 f6 52 3e 5b 39 95 3d 76 63 14 3d 02 c4 2b 3d
       0.20601921 0.0728633 0.036227666 0.041934974
0002b0 13 37 a9 3d 45 01 9b bc f1 6a 4d 3d e4 3f 97 3d
       0.08262458 -0.018921504 0.050150815 0.07385233
0002c0 64 f1 07 3e 98 5e 1e 3c 96 b7 6e 3e a8 e6 ac 3d
       0.13275677 0.009666108 0.2331222 0.08442432
0002d0 9b 87 2b 3e 9a 65 0b 3e bb fb a0 3c 16 f2 30 3e
       0.16750948 0.13612977 0.019651284 0.17279848
0002e0 b7 f3 4a 3e a0 70 1e 3e 8c c1 4e 3e 5a 47 4e 3d
       0.19819532 0.1547265 0.2019102 0.050361015
0002f0 22 6e 83 3d 20 01 38 bb 27 4e dd bb 60 4c d3 bc
       0.064174905 -0.0028076842 -0.0067537013 -0.025793254
000300 1e 84 8c 3e b3 9f 1e 3d 8f e9 4b bd 9a 06 56 3e
       0.27444547 0.03872652 -0.049783286 0.20900956
000310 b6 1e 0a 3e 16 cb a9 bd 6a c5 49 3e b8 0e 34 bd
       0.13488278 -0.08290689 0.19704214 -0.04395935

lstm.bias_hh_l1 f4 [200]
000000 60 fb a7 3d 2b db b7 3d a5 eb b1 bd 0a f0 c8 3d
       0.08202243 0.0897735 -0.08687524 0.09811409
000010 67 cc a9 3d 9c 31 33 3e 71 f2 0e 3e 84 25 ed bd
       0.0829094 0.17499393 0.13959672 -0.11579421
000020 b5 9e 35 3e 60 04 aa 3d f0 a6 84 3e 94 9c 94 bd
       0.17736323 0.08301616 0.25908613 -0.072564274
000030 a7 d0 c6 39 d0 74 e6 bc a8 79 3a 3e 66 70 09 be
       0.0003792096 -0.028131872 0.1821047 -0.13421783
000040 3b a8 8d 3d 3f 3a 4a bd 23 ef b5 3c 2f 6a 4a 3e
       0.06916853 -0.049371954 0.022208756 0.19767068
000050 a6 a2 09 3e 7d 34 63 bd 48 4e be 3d 7a 65 5a 3e
       0.13440952 -0.05546998 0.09292275 0.21327773
000060 e1 89 8f 39 d0 0b 0d 3e 83 3c 67 bc 2e 2d 0f 3e
       0.00027377813 0.13774037 -0.014113548 0.13982078
000070 59 88 6c 3e 32 c5 5e 3d b0 d3 f8 bb df aa 18 3e
       0.23098888 0.05438728 -0.0075935945 0.14908932
000080 47 a3 55 3e 19 1c 9a 3e e6 64 14 3d 56 e2 30 3d
       0.20863067 0.30099562 0.036229037 0.0431846
000090 51 bf 2a 3e a1 4e 56 3e d0 e3 79 3d cb 25 c8 3d
       0.16674544 0.20928432 0.061008275 0.097728334
0000a0 db b1 33 bd bf 04 00 be b1 37 67 3e ad 5c 89 3d
       -0.043870788 -0.1250181 0.22579838 0.067071296
0000b0 ef 05 f4 3d 1d 39 ff 3c ab 81 69 3d b6 67 72 bd
       0.11915194 0.031155163 0.057008427 -0.059180938
0000c0 24 67 ce 3d 05 ac 8e bd 2b 35 61 bd 14 25 1a 3e
       0.10078266 -0.06966404 -0.054982346 0.15053207
0000d0 6a e0 26 3d 1f d3 e2 bd f7 85 c8 bd 74 a0 7a 3d
       0.04074136 -0.110754244 -0.09791177 0.061188176
0000e0 3c 73 99 3d f1 23 b9 bd 59 14 02 3d 37 ec 3d 3c
       0.07492682 -0.090400584 0.031757686 0.011591963
0000f0 bc eb 1c 3d 8e f4 63 bb f1 6e 7c bd fd af ed 3c
       0.03831075 -0.0034783217 -0.06162924 0.029014582
000100 48 c9 7e bd 88 71 d6 3d aa 97 1d bd f0 86 a5 bb
       -0.062203676 0.10470873 -0.038474716 -0.005051486
000110 a2 c0 bf bc 41 58 c4 3d 6f 6b 1a 3e c7 9b 79 bd
       -0.023407284 0.095871456 0.15080045 -0.060939576
000120 19 69 11 3c 25 a8 a9 bd f9 35 86 3b 31 62 ad bd
       0.008875155 -0.08284024 0.0040957895 -0.08465994
000130 bb 09 a1 bd 05 c1 bd bd 53 6e 90 bd 66 32 84 3d
       -0.07863184 -0.09265331 -0.07052293 0.06454925
000140 63 c6 c6 3d a7 de 7e bd ee 72 e2 3d 86 b0 e0 3d
       0.09705808 -0.062224057 0.11057077 0.10971169
000150 c6 f2 03 3e c9 d5 85 bd 22 f5 1b 3e 48 5e cc bc
       0.1288558 -0.06534917 0.1523023 -0.0249473
000160 a6 21 ba 3d 42 a2 7e bd 06 7a bf bd ed 3a 1e 3e
       0.09088449 -0.06216646 -0.09349446 0.15452166
000170 51 33 45 3e a8 52 53 bd ca ac 8c bd 6a 8c 1b 3e
       0.19257857 -0.0515925 -0.068688944 0.15190282
000180 7b 99 f4 bc c6 fe a7 3d 8b be 0d 3e 01 a6 95 3d
       -0.029858341 0.08202891 0.13842218 0.07307053
000190 c5 34 26 3e 1f 50 d2 bc ad 0e 4d 3d 4c 38 77 bc
       0.16231067 -0.02567297 0.050062824 -0.015089106
0001a0 f0 e6 16 bd 2c 94 8f bd 62 a8 7b bd 45 ac d3 bd
       -0.036841333 -0.070106834 -0.06143988 -0.10335592
0001b0 42 08 0b 3e 2d 1c a3 3d 4b 8b 5a bd f5 5e 05 3d
       0.13577369 0.079643585 -0.053355496 0.03256126
0001c0 b8 a6 4b 3e d2 58 13 3e a7 4c 25 3e 52 03 16 3e
       0.19887817 0.14389351 0.16142522 0.14649704
0001d0 c4 16 ff 3d 54 4c 06 bc eb df a4 bd f0 0e 98 3d
       0.12455514 -0.008196909 -0.080505215 0.07424724
0001e0 7b fe b2 bd 74 a6 fd bd b8 6c 17 3d 3f 1a b0 3c
       -0.087399445 -0.12385264 0.036968917 0.02149689
0001f0 43 63 83 3d 62 58 89 bb 38 6b 31 3c 21 a8 5d bd
       0.06415417 -0.0041914443 0.010828786 -0.05411542
000200 75 7d 22 bd 44 44 32 3e f5 22 a5 3c 2b ea b9 bd
       -0.039670426 0.17408854 0.02015827 -0.09077867
000210 c5 cc 0e 3e b3 bf f1 3d a7 d2 94 3c fb 61 c8 3d
       0.13945301 0.11804142 0.018166853 0.09784313
000220 dc d8 17 3d 06 33 ac bc 96 4e 27 3e 0a 36 1e be
       0.037072048 -0.021020424 0.16338572 -0.15450302
000230 66 1d 94 bd f1 ab 13 3c 34 1d 4f bc a3 1a 34 3e
       -0.0723217 0.009013162 -0.01264124 0.17588286
000240 d7 b1 77 bc 31 a4 43 bd 97 35 ce bc 2b 40 2a 3d
       -0.015118084 -0.047764007 -0.025172038 0.0415651
000250 01 f2 6f bd 9e a9 c9 bc 7b cb 0e 3d af 56 90 3d
       -0.058580402 -0.024617013 0.034862023 0.070477836
000260 e0 4a b5 bc 59 91 8a 3d ad c1 1f 3d ed f4 94 bd
       -0.02213043 0.06766004 0.039003063 -0.072732784
000270 da f6 1b 3d 1d 8a bf 3d 33 7d 7a 3e bb 25 44 3e
       0.038077213 0.09352515 0.24461822 0.19155018
000280 58 20 12 3e b5 d5 b4 3c ca a5 8f 3d 74 22 f1 3c
       0.1427015 0.02207456 0.07014044 0.029435374
000290 7d 37 03 3e ff fd b4 3d 1a 24 21 3d 81 49 92 bd
       0.12814136 0.088375084 0.03934107 -0.07142926
0002a0 86 12 3f 3e 4c 5b 8b 3e bb aa 43 3e c9 73 1a 3e
       0.1865941 0.2721809 0.19108097 0.15083231
0002b0 a0 80 25 bc ab cd 53 3e 35 f3 c8 3b da e6 75 3c
       -0.010101467 0.20683925 0.006132508 0.015008653
0002c0 43 25 81 bc ad 2b 14 3e 5a 9d 44 3e c3 c4 19 bb
       -0.015764838 0.14469786 0.1920065 -0.0023463226
0002d0 3c ec 4b 3e 38 8e 65 3d 23 34 4c bd 7e 65 0f 3e
       0.19914335 0.056043833 -0.04985441 0.1400356
0002e0 e6 f7 57 3d 83 03 21 3e da 5c 6a 3e 06 ee 8b bc
       0.05272665 0.15723996 0.22886983 -0.017081272
0002f0 5f 3f d4 3d f0 c4 59 bd 4d 14 77 3c 8c 17 70 bb
       0.103636496 -0.05316633 0.015080524 -0.0036635129
000300 ba 19 1d 3e fb 5f 4f 3e 8f 35 ec 3d 20 7f ab 3c
       0.15341845 0.20251457 0.11533653 0.020934641
000310 35 b9 1c 3e fb d1 9f bc c1 2c cf 3d 23 e3 e2 3d
       0.15305026 -0.019509306 0.10115958 0.11078479
